Part 3/fashion-feedforward-minimal/fashion-feedforward.pth (torch_old, 54859 bytes, 6 tensors)

linear1.weight f4 [16, 784]
-0.016822224 -0.031731267 -0.009697324 0.031020844 -0.01719126 -0.0007476129 0.012807727 -0.019359047
-0.021239085 0.031662095 -0.005157645 -0.014684414 0.021656215 0.01756479 0.014232333 0.025801802
0.024574898 -0.024781214 -0.02876916 -0.016055435 0.011762798 -0.032586094 0.0059788036 -0.017881798
0.014084523 -0.022384305 0.0010437854 -0.0014146082 -0.018939776 0.008230723 -0.034876507 -0.016747398
0.014753524 -0.015317638 0.0020850971 0.016060708 -0.0306286 0.033405863 -0.031746756 -0.009910958
-0.02158983 0.015358214 0.00831127 -0.035012662 0.014397026 -0.010026322 -0.024698637 0.018423826
-0.030170048 0.023385217 0.00082585856 -0.022096816 0.030006833 0.01259221 0.00729781 -0.023722634
-0.02519618 0.026743244 -0.0030295127 0.021742556 -0.015554424 -0.022585668 -0.009734965 0.027043212
-0.027497362 -0.009072207 0.01382358 0.02235047 -0.029112523 -0.03260349 0.016853703 0.015737768
-0.033425443 -0.021866158 0.023378171 0.0029679497 0.0020417797 -0.035660338 -0.010282767 0.020141838
-0.021039044 -0.030131364 -0.0117937885 -0.020127837 -0.010543435 0.023823326 0.008525327 -0.029204091
-0.029587971 0.011901116 0.019801151 -0.017256822 -0.011000158 -0.0078081223 -0.034885723 0.022087462
0.0056296424 -0.0018867695 0.020243116 -0.0027749296 -0.036879104 0.029889055 -0.0018136337 -0.013750249
-0.009009812 0.00058971596 -0.009051015 0.0005997297 -0.0014624364 0.03522795 -0.0022762052 -0.0054107932
0.008767582 0.005893867 -0.020641977 -0.026281316 0.016040152 0.011748358 -0.015694452 -0.022797666
-0.033132643 -0.026277909 -0.018918622 0.0020691047 0.01721228 0.020112744 -0.030566575 0.025180744
0.024545109 0.025700439 0.0072636637 -0.037338734 -0.010703773 0.011057086 0.0074065216 0.02095991
0.020446911 0.008657849 -0.024254283 -0.0072485935 -0.011761113 -0.014868151 -0.018262526 -8.214361e-05
-0.018808236 -0.022045866 -0.0023400853 -0.0057343068 -0.003781977 -0.033746447 0.0228586 0.019196922
0.031492542 0.0139692975 0.0248937 0.02466614 -0.016950728 -0.008209785 -0.008679285 -0.006026762
-0.019120967 -0.02547135 0.016661301 0.012621825 0.018023679 0.012712463 -0.011106739 -0.012762002
-0.027669612 -0.015529421 -0.0021020276 0.026238162 -0.011315347 0.025888601 -0.03433039 -0.009429417
0.008926272 0.014263047 0.010957394 0.028661469 -0.022205127 0.0007799323 0.008757068 -0.022493884
-0.016668333 0.016970832 -0.0073972824 -0.015244399 0.0020338898 -0.03336585 0.028140176 -0.019525185
0.028355572 -0.034967493 0.010019848 0.019478725 0.030795855 -0.0037974622 -0.0032630742 0.02077549
-0.0118513685 0.029755414 0.03424745 -0.02860726 0.017711358 -0.009540394 0.025649603 -0.0019868435
0.00063780625 -0.03077696 0.014848625 -0.0011721103 0.02877776 -0.008552477 -0.036347 0.0053317845
-0.0100825215 -0.035993434 -0.028596263 0.030487847 -0.0248277 2.4402063e-05 -0.03222841 -0.02025297
0.0021705157 0.029181216 0.027669618 0.012880745 0.0033591706 0.01142028 0.027324876 0.009291668
-0.006565079 -0.012855899 0.009572455 -0.016304804 -0.0024985066 0.027446723 0.018174263 -0.03312323
-0.0069322702 -0.020265639 -0.026520554 -0.019744841 -0.017225338 -7.362182e-05 0.027981916 -0.007898817
-0.029962758 -0.022956068 -0.0056589716 -0.011901077 0.0085257 0.013432106 0.017332409 0.028093925
00000000: c3ce 89bc a5f8 01bd 86e1 1ebc 6d1f fe3c
00000010: afd4 8cbc 74fb 43ba 80d7 513c dd96 9ebc
00000020: 97fd adbc 1db0 013d 7601 a9bb e596 70bc
00000030: 6068 b13c 09e4 8f3c bb2e 693c 4d5e d33c
00000040: 4c51 c93c f901 cbbc 4dad ebbc b086 83bc
00000050: c0b8 403c ff78 05bd d7e9 c33b d97c 92bc
00000060: c5c2 663c 4a5f b7bc a0cf 883a 606a b9ba
00000070: 9727 9bbc 28da 063c abda 0ebd d731 89bc
00000080: c4b8 713c d5f6 7abc 20a6 083b bf91 833c
00000090: d4e8 fabc 96d4 083d e308 02bd 9261 22bc
000000a0: 28dd b0bc 05a1 7b3c fe2b 083c 7069 0fbd
000000b0: 81e1 6b3c 7145 24bc cc54 cabc 90ed 963c
000000c0: 2d27 f7bc 5b92 bf3c 6e7e 583a 6204 b5bc
000000d0: e4d0 f53c 8f4f 4e3c 7822 ef3b f855 c2bc
000000e0: 3868 cebc a614 db3c ca8a 46bb 721d b23c
000000f0: fcd7 7ebc 9405 b9bc 677f 1fbc ba89 dd3c
00000100: 2642 e1bc 98a3 14bc 4c7c 623c 5518 b73c
00000110: 637d eebc 3d8b 05bd c710 8a3c 7eec 803c
00000120: 1ee9 08bd a820 b3bc 9483 bf3c ef81 423b
00000130: 61cf 053b 9310 12bd 0d79 28bc 7f00 a53c
00000140: 135a acbc 0dd6 f6bc bc3a 41bc 22e3 a4bc
00000150: 5fbe 2cbc 2329 c33c d0ad 0b3c 6b3d efbc
00000160: 7962 f2bc e6fc 423c 0636 a23c 2e5e 8dbc
00000170: 023a 34bc 47db ffbb 55e4 0ebd c4f0 b43c
00000180: dd78 b83b 7b4d f7ba e4d4 a53c 98db 35bb
00000190: 8b0e 17bd e4d9 f43c 73b7 edba b948 61bc
000001a0: e49d 13bc 2b97 1a3a b54a 14bc 2e37 1d3a
000001b0: 39af bfba 2f4b 103d 632c 15bb 064d b1bb
000001c0: e7a5 0f3c 5721 c13b 5d19 a9bc ea4b d7bc
000001d0: a366 833c 2f7c 403c a791 80bc 2cc2 babc
000001e0: 18b6 07bd c544 d7bc 3afb 9abc d199 073b
000001f0: c400 8d3c 7bc3 a43c c166 fabc d947 ce3c
00000200: d312 c93c ba89 d23c 0704 ee3b 80f0 18bd
00000210: e15e 2fbc c828 353c 68b2 f23b 1eb4 ab3c
00000220: 4880 a73c a7d9 0d3c ebb0 c6bc 9c85 edbb
00000230: afb1 40bc 8c99 73bc 4b9b 95bc 8444 acb8
00000240: bb13 9abc 8899 b4bc 1e5c 19bb dae6 bbbb
00000250: 0cdb 77bb b739 0abd f541 bb3c dd42 9d3c
00000260: 53fe 003d 7bdf 643c dfed cb3c a510 ca3c
00000270: 41dc 8abc 5682 06bc 8f33 0ebc 257c c5bb
00000280: 93a3 9cbc 4ba9 d0bc 487d 883c c5cb 4e3c
00000290: 65a6 933c ef47 503c 0af9 35bc b717 51bc
000002a0: 62ab e2bc 1d6f 7ebc 2cc2 09bb 6af1 d63c
000002b0: 0164 39bc 5514 d43c 069e 0cbd d77d 1abc
000002c0: 803f 123c 8eaf 693c a486 333c 75cb ea3c
000002d0: 87e7 b5bc 5f74 4c3a ce79 0f3c 1845 b8bc
000002e0: 078c 88bc 6a06 8b3c e764 f2bb a5c3 79bc
000002f0: 024b 053b a1aa 08bd 3a86 e63c 48f3 9fbc
00000300: f249 e83c 133a 0fbd 4a2a 243c d991 9f3c
00000310: 9747 fc3c d8de 78bb 4dd9 55bb 5c31 aa3c
00000320: 3e2c 42bc a0c1 f33c 0e47 0c3d c659 eabc
00000330: 6917 913c 504f 1cbc 1e1f d23c b435 02bb
00000340: 7432 273a f71f fcbc a647 733c 7fa1 99ba
00000350: 56bf eb3c b01f 0cbc 98e0 14bd 40b6 ae3b
00000360: 2931 25bc da6d 13bd b642 eabc a6c1 f93c
00000370: 7663 cbbc 08b3 cc37 f001 04bd 8ee9 a5bc
00000380: 363f 0e3b 720d ef3c 65ab e23c c309 533c
00000390: 8825 5c3b 201c 3b3c 6bd8 df3c 153c 183c
000003a0: e01f d7bb 8ca1 52bc c9d5 1c3c a791 85bc
000003b0: fcbd 23bb f3d7 e03c 31e2 943c 39ac 07bd
000003c0: 1928 e3bb 2004 a6bc a241 d9bc efbf a1bc
000003d0: 271c 8dbc 6a65 9ab8 553a e53c 0a6a 01bc
000003e0: 7574 f5bc 5d0e bcbc e56e b9bb bcfc 42bc
000003f0: 61af 0b3c 5612 5c3c b2fc 8d3c 3b25 e63c

linear1.bias f4 [16]
-0.0045627584 0.77992684 0.45668706 1.1733 -0.15972364 -0.62628764 0.080663025 0.0042895474
-0.028411055 0.38411632 -0.018618302 1.523239 0.2408261 -0.054962408 0.21794547 0.22201042
00000000: 3183 95bb 49a9 473f e3d2 e93e b22e 963f
00000010: 988e 23be 6354 20bf a832 a53d 558f 8c3b
00000020: 4dbe e8bc e5aa c43e 6985 98bc 7ff9 c23f
00000030: 1e9b 763e 4320 61bd 192d 5f3e b356 633e

linear2.weight f4 [32, 16]
-0.16739029 -0.12282202 0.025117716 0.20099847 0.096324295 -0.19073139 0.06242548 -0.13306594
-0.08825236 -0.46741807 -0.28137666 0.7329003 0.33462098 -0.058413927 -0.29414475 -0.222153
-0.0631811 0.561774 -0.28275454 -0.42809084 -0.07294672 -0.34991312 -0.25503218 -0.045127675
-0.11741051 -0.31008825 -0.061278038 0.18918777 -0.13111597 -0.16143778 -0.19006017 -0.21621251
-0.008838467 0.0016922456 -0.06738942 -0.18195285 0.1905327 -0.14146058 0.08926633 -0.12996933
0.17249717 -0.25906494 -0.2188848 -0.18374331 -0.1390614 0.19550693 -0.18317555 -0.20817868
0.17167465 -0.24652083 -0.40032807 0.09693634 -0.13959065 -0.38542598 0.033929065 0.2157774
0.02118066 0.4983411 -0.106621295 0.103012554 0.052887868 -0.20200488 -0.14755593 -0.22030036
-0.040840074 -0.15433379 -0.8925763 0.014150287 -0.21532774 0.45280656 -0.136104 -0.23578577
0.08509122 0.28133255 -0.25942734 -0.86914563 0.12927061 0.2252749 -0.2846798 -0.28918618
0.085439965 0.9583538 0.05451952 -0.42391038 -0.1276683 -0.5478852 -0.101379804 -0.16971941
-0.09413325 -0.1813077 -0.0010850943 0.017537093 -0.023314593 -0.05127389 0.24387482 0.29050788
0.12237192 0.025976649 -0.4917278 -0.28057954 -0.20722643 0.0051785638 -0.18793549 -0.06334241
-0.06717751 0.4518387 0.14563125 0.13111068 1.2571572 -0.30609202 -0.24560237 -0.4448816
-0.239655 -0.41415977 -0.5748186 0.31071144 0.30309913 -0.5308918 0.34331504 -0.061097674
-0.11621338 -0.16331719 0.29486102 0.03900334 -0.58334553 -0.44181314 -0.45982918 -0.22284205
-0.18901859 -0.10518461 0.6676646 0.20534797 -0.1268901 -0.6489511 -0.06956581 -0.18435857
-0.16907711 -0.70947134 -0.09933416 -0.8230681 0.06815929 0.0032862723 0.04603912 -0.056981374
0.14771333 0.31109306 -0.21305734 -0.20104972 -0.25431016 0.010477575 0.16938636 0.046964273
-0.17654954 -0.20605008 0.18107782 -0.029062077 -0.13523619 0.031193197 -0.17608017 -0.23593494
-0.18343894 -0.027195103 -0.32996264 -0.104401246 -0.2903247 -0.15125853 -0.082314976 0.22061257
0.23053879 -0.20108624 -0.01586685 0.15240473 0.0013893133 0.090980604 0.24787095 -0.063853234
0.00078053673 0.116356336 0.48074892 -0.36560506 -0.27470604 -0.20928276 0.20571414 -0.10775822
-0.0142797725 -0.21535237 -0.08941191 -0.38626066 0.1909464 -0.102553084 0.0089010075 -0.2228916
-0.112255506 -0.20193368 0.59094316 -0.9802537 0.16691901 -0.53735876 -0.0850575 -0.04494708
-0.1464609 -0.383139 -0.0053022294 0.26736945 0.17787911 0.02764321 0.22152363 -0.34729478
0.023633003 -0.34087348 -0.93482906 0.2488211 -0.15832138 -0.40497935 -0.29750517 0.06733868
-0.026557315 0.07966149 0.25644165 -0.9270377 -0.1093139 0.10325603 0.39613512 -0.2404241
0.2484934 -0.102098614 -0.2705924 -0.09004711 -0.24104269 -0.07363065 -0.023417745 0.21322723
0.23885003 -0.013059786 0.059238225 0.07548249 0.5326667 -0.024548553 -0.20172808 -0.03293418
0.18017574 0.15642369 -0.44666502 -0.07980944 0.015162124 -0.25373197 -0.12818292 -0.12465102
-0.041396346 -0.0776898 0.10952136 -0.37203687 0.20464544 0.40194136 -0.18228094 -0.16655318
00000000: 5c68 2bbe 1c8a fbbd abc3 cd3c 8bd2 4d3e
00000010: ac45 c53d 174f 43be dcb1 7f3d 7042 08be
00000020: a7bd b4bd 6c51 efbe 9a10 90be 5b9f 3b3f
00000030: 7153 ab3e 7143 6fbd 249a 96be 137c 63be
00000040: 1865 81bd 6cd0 0f3f 34c5 90be b92e dbbe
00000050: 1765 95bd d027 b3be 9493 82be ccd7 38bd
00000060: ec74 f0bd e3c3 9ebe aefe 7abd 70ba 413e
00000070: 4443 06be f24f 25be 229f 42be d066 5dbe
00000080: 38cf 10bc 57ce dd3a 7703 8abd d951 3abe
00000090: 011b 433e 0bdb 10be 44d1 b63d ae16 05be
000000a0: 19a3 303e 29a4 84be 5623 60be 3527 3cbe
000000b0: 1d66 0ebe f832 483e 5f92 3bbe cb2c 55be
000000c0: 7bcb 2f3e f56f 7cbe cdf7 ccbe 8f86 c63d
000000d0: daf0 0ebe 8e56 c5be 34f9 0a3d c0f4 5c3e
000000e0: 1083 ad3c 9126 ff3e 445c dabd 3ff8 d23d
000000f0: f3a0 583d 5eda 4ebe e718 17be 6b96 61be
00000100: ec47 27bd ad09 1ebe e17f 64bf 9bd6 673c
00000110: e07e 5cbe 43d6 e73e d95e 0bbe d371 71be
00000120: 4e44 ae3d d20a 903e a9d3 84be 5480 5ebf
00000130: 845f 043e 77ae 663e 8dc1 91be 3610 94be
00000140: 26fb ae3d ad56 753f dc4f 5f3d c80a d9be
00000150: 7bbb 02be 3442 0cbf 37a0 cfbd edca 2dbe
00000160: efc8 c0bd baa8 39be b939 8eba f3a9 8f3c
00000170: 3ffe bebc 9204 52bd 52ba 793e 73bd 943e
00000180: 219e fa3d fbcc d43c bfc3 fbbe 1fa8 8fbe
00000190: 2a33 54be f1b0 a93b 2972 40be aab9 81bd
000001a0: 5d94 89bd 6757 e73e 5c20 153e e141 063e
000001b0: 87ea a03f 18b8 9cbe 307f 7bbe 85c7 e3be
000001c0: 1f68 75be c00c d4be 5027 13bf 9215 9f3e
000001d0: cf2f 9b3e 86e8 07bf fdc6 af3e 8e41 7abd
000001e0: 4801 eebd 9f3c 27be 06f8 963e f7c1 1f3d
000001f0: 2256 15bf 5535 e2be bb6e ebbe b530 64be
00000200: 178e 41be 076b d7bd 11ec 2a3f bd46 523e
00000210: 7aef 01be a921 26bf 8578 8ebd 7ec8 3cbe
00000220: 8d22 2dbe ea9f 35bf b56f cbbd 97b4 52bf
00000230: 1997 8b3d 805e 573b 8493 3c3d 4d65 69bd
00000240: 2a42 173e 9747 9f3e b42b 5abe fadf 4dbe
00000250: f134 82be 22aa 2b3c 9e73 2d3e 9c5d 403d
00000260: 67c9 34be cbfe 52be 776c 393e 9813 eebc
00000270: 5b7b 0abe e088 ff3c 5c4e 34be ee98 71be
00000280: 6bd7 3bbe 44c8 debc ddf0 a8be 52d0 d5bd
00000290: 70a5 94be 84e3 1abe c194 a8bd 43e8 613e
000002a0: 5c12 6c3e 8de9 4dbe 32fb 81bc fc0f 1c3e
000002b0: 9e19 b63a 0a54 ba3d e2d1 7d3e 7cc5 82bd
000002c0: ef9c 4c3a 3b4c ee3d b924 f63e 9630 bbbe
000002d0: 45a6 8cbe 384e 56be baa6 523e 57b0 dcbd
000002e0: b5f5 69bc 5585 5cbe 971d b7bd f5c3 c5be
000002f0: 7487 433e 5a07 d2bd 88d5 113c b23d 64be
00000300: 37e6 e5bd b4c7 4ebe 0d48 173f e8f1 7abf
00000310: d1ec 2a3e 5890 09bf a032 aebd 6e1a 38bd
00000320: d9f9 15be cc2a c4be 53be adbb a6e4 883e
00000330: f125 363e 0374 e23c 17d7 623e 9fd0 b1be
00000340: 009a c13c f886 aebe f550 6fbf f5ca 7e3e
00000350: 001f 22be 7459 cfbe 9952 98be dde8 893d
00000360: ba8e d9bc 9025 a33d 524c 833e 5852 6dbf
00000370: f7df dfbd e677 d33d 39d2 ca3e bc31 76be
00000380: 0e75 7e3e 1419 d1bd 168b 8abe 9f6a b8bd
00000390: e5d3 76be abcb 96bd 92d6 bfbc 3d58 5a3e
000003a0: 1a95 743e b6f8 55bc c8a3 723d 9096 9a3d
000003b0: d85c 083f 0c1a c9bc ce91 4ebe fee5 06bd
000003c0: fd7f 383e 882d 203e 47b1 e4be 2273 a3bd
000003d0: 8f6a 783c 28e9 81be 6242 03be 0949 ffbd
000003e0: 378f 29bd d41b 9fbd bc4c e03d 9e7b bebe
000003f0: 938e 513e 42cb cd3e dba7 3abe eb8c 2abe

linear2.bias f4 [32]
-0.27431086 -0.12997301 0.11408772 0.003260793 0.33683634 0.72202957 0.54662627 1.5469842
-0.42005295 0.039819174 0.0694124 -0.7832364 -0.5152756 0.883756 0.10341297 -0.05345544
0.63124466 -0.078665316 -0.16224054 -0.120716706 -0.0057585984 -0.23600784 0.74754417 0.09022899
0.1811281 0.5482616 1.1475754 -0.14359297 0.36261415 0.03511645 0.187644 -0.708541
00000000: 7972 8cbe a517 05be d3a6 e93d 07b3 553b
00000010: d075 ac3e eed6 383f b3ef 0b3f 9403 c63f
00000020: 2e11 d7be 6e19 233d 1728 8e3d 2e82 48bf
00000030: 1ae9 03bf d53d 623f 2eca d33d 17f4 5abd
00000040: 4099 213f 481b a1bd 6222 26be 523a f7bd
00000050: a0b2 bcbb 0aac 71be 0e5f 3f3f fac9 b83d
00000060: a579 393e df5a 0c3f c0e3 923f 090a 13be
00000070: 90a8 b93e 44d6 0f3d c025 403e f162 35bf

linear3.weight f4 [10, 32]
-0.08473483 -0.04983266 -0.24022214 0.29935715 0.37569147 -0.2344334 0.20994967 1.1974919
0.39098743 0.14043684 0.09711412 -0.033427544 -0.20875381 0.5117061 -0.07878828 0.5832342
-0.5394435 0.04366951 0.21347857 -0.14335456 0.16652831 -0.313059 -0.21002442 -0.045328986
-0.31621218 -0.0671628 0.6161228 -0.039281666 -0.16904652 0.11405899 -0.4413119 -0.3736659
0.28392053 0.27462804 -0.19403318 -0.4008158 -0.2285211 0.42870346 -0.23390578 0.12094644
-0.26664194 -0.099857554 0.23723672 -0.14944077 0.36401755 0.0056738793 0.040244848 -0.25583714
-0.35259616 0.20958227 0.33545458 0.52719504 -0.025712011 -0.2271742 0.23261839 -0.11010942
0.049975775 0.13876738 0.31625605 -0.033709858 0.20775826 0.21733421 -0.23175187 0.27858347
0.16762942 -0.07137249 -0.003833641 -0.10280046 0.08112545 -0.2802765 -0.040324233 0.16524656
-0.19297704 0.027624458 -0.005571792 -0.108621836 -0.16529195 0.6580685 -0.02637612 0.13627765
-0.40510586 -0.08758537 -0.0580171 -0.06580065 -0.15980187 -0.60097086 -0.51102245 0.18052581
0.36659622 1.05714 0.43030193 -0.23651719 -0.66565424 -0.34755936 0.26456124 -0.3325856
0.6994963 -0.20260642 0.04890249 0.33129478 -0.39612377 -0.13681157 0.033642825 0.56427103
-0.22281279 0.12253082 -0.0020193094 0.06582088 -0.384085 0.15661359 0.10256284 -0.019730456
-0.6380926 -0.05230669 -0.21183345 -0.07722366 0.004083505 -0.15242718 -0.31509095 -0.0029134857
-0.1132249 0.3598293 0.19499655 -0.058212284 -0.253923 0.4486881 0.37088153 0.0012460903
0.42562938 -0.21065333 0.32462227 -0.18340895 0.42049986 -0.30538327 0.06447308 -0.29310337
-0.060732506 -0.0005621412 -0.1464866 -0.121207595 -0.055584952 0.059997987 -0.18125962 0.53880674
-0.5024194 0.071441375 -0.25282216 0.060594242 -0.07374668 -0.29221803 -0.21158016 -0.20097262
0.17422558 0.97366595 -0.17915453 0.062288836 -0.3698384 0.39189094 0.69882417 -0.6776804
-0.35171375 0.3460323 -0.113403715 -0.47042054 -1.0307109 0.9209714 0.09436975 -1.1070762
0.41120562 -0.09491985 -0.049313214 -0.065086804 -0.28623393 -0.9381464 -0.19802243 -0.58698195
0.89767516 0.17688331 0.095727764 -0.1717239 0.13548653 0.5129556 1.0877571 -0.14839025
0.040953867 -1.6472623 -0.5810785 -0.24532402 0.5979759 -0.21670152 -0.4441179 -0.35954624
-0.19884633 -0.05043558 -0.01945005 0.23267892 0.9420221 -0.62796205 -0.65149355 0.8678395
0.035631765 0.053975392 0.12827036 -0.10752888 0.017770555 0.40935555 0.06663061 0.41543224
-0.7227648 0.10335303 0.20470756 0.04385144 -0.11098715 -0.19003147 -0.47871858 -0.0041457927
-0.5288672 1.0544109 0.36781535 0.2775287 0.17657846 0.14095183 0.105603136 -0.15190838
-0.94282484 -0.29459262 0.0073539116 -0.07249563 -0.58414996 0.7132815 0.38354245 -0.6799599
-0.22595294 -0.24509747 0.039243534 0.24174142 0.19005992 -0.6490773 -0.19372645 -0.61375284
1.2944766 -0.22827668 -0.27973002 0.2671581 -0.18894492 0.35419205 -0.0012587019 -0.16374582
-0.48798513 -0.77022845 -0.23282486 -0.19193277 0.10862553 -0.19296612 -0.4385309 0.6593582
00000000: 7489 adbd 551d 4cbd cbfc 75be 5745 993e
00000010: a25a c03e 4f0f 70be 0cfd 563e 6a47 993f
00000020: 812f c83e adce 0f3e c5e3 c63d 52eb 08bd
00000030: 8fc3 55be 2cff 023f c05b a1bd d64e 153f
00000040: f818 0abf cdde 323d 209a 5a3e 8acb 12be
00000050: 6686 2a3e 4549 a0be a410 57be e3aa 39bd
00000060: 90e6 a1be a68c 89bd 39ba 1d3f d0e5 20bd
00000070: 881a 2dbe c297 e93d a2f3 e1be 2351 bfbe
00000080: 085e 913e 0c9c 8c3e a2b0 46be bb37 cdbe
00000090: 6f01 6abe 057f db3e ff84 6fbe c4b2 f73d
000000a0: 4b85 88be 1e82 ccbd 2fee 723e 0007 19be
000000b0: 8260 ba3e f3eb b93b c8d7 243d 16fd 82be
000000c0: 7c87 b4be bc9c 563e b4c0 ab3e 41f6 063f
000000d0: ffa1 d2bc 5aa0 68be 8433 6e3e 0c81 e1bd
000000e0: 66b3 4c3d 0919 0e3e 50ec a13e 5913 0abd
000000f0: 95be 543e dc8c 5e3e 5d50 6dbe 7ea2 8e3e
00000100: 0ca7 2b3e bd2b 92bd d33d 7bbb 0c89 d2bd
00000110: 1a25 a63d 6780 8fbe 062b 25bd 6536 293e
00000120: c69b 45be b04c e23c 9493 b6bb 2075 debd
00000130: 4b42 29be 2d77 283f bc12 d8bc 5e8c 0b3e
00000140: 096a cfbe f55f b3bd 57a3 6dbd 7ec2 86bd
00000150: 1aa3 23be 3ad9 19bf 5ed2 02bf c2db 383e
00000160: 80b2 bb3e 5d50 873f 8950 dc3e 9031 72be
00000170: 5168 2abf 4df3 b1be 9274 873e a948 aabe
00000180: 3112 333f 0f78 4fbe fa4d 483d 789f a93e
00000190: bcd0 cabe 5518 0cbe 0fcd 093d 1174 103f
000001a0: 0929 64be 70f1 fa3d 6456 04bb 19cd 863d
000001b0: caa6 c4be 505f 203e 770c d23d c4a1 a1bc
000001c0: 095a 23bf 8a3f 56bd deea 58be 7027 9ebd
000001d0: ecce 853b df15 1cbe 9a53 a1be 2ef0 3ebb
000001e0: 75e2 e7bd 8c3b b83e 2dad 473e 0170 6ebd
000001f0: 3202 82be 72ba e53e 2fe4 bd3e da53 a33a
00000200: 18ec d93e 82b5 57be e434 a63e 8ecf 3bbe
00000210: c24b d73e 325b 9cbe 760a 843d a511 96be
00000220: a6c2 78bd a85c 13ba 9500 16be b03b f8bd
00000230: 0cad 63bd 73c0 753d 1f9c 39be 3def 093f
00000240: 8f9e 00bf db4f 923d e871 81be ab31 783d
00000250: 8008 97bd 9a9d 95be 78a8 58be c4cb 4dbe
00000260: 3168 323e 2c42 793f 4974 37be 9422 7f3d
00000270: 755b bdbe eea5 c83e 24e6 323f 767c 2dbf
00000280: d313 b4be 252b b13e 3540 e8bd f6da f0be
00000290: 56ee 83bf c8c4 6b3f ed44 c13d acb4 8dbf
000002a0: 8b89 d23e 5765 c2bd a7fc 49bd 3b4c 85bd
000002b0: 418d 92be 5d2a 70bf 64c6 4abe 7344 16bf
000002c0: 0ace 653f e620 353e eb0c c43d 64d8 2fbe
000002d0: fbbc 0a3e 0f51 033f a03b 8b3f 9df3 17be
000002e0: 3ebf 273d 7ed9 d2bf 90c1 14bf 3836 7bbe
000002f0: f314 193f 01e7 5dbe 6c63 e3be 7216 b8be
00000300: 5f9e 4bbe 8a95 4ebd b655 9fbc 6243 6e3e
00000310: 5c28 713f 1fc2 20bf 48c8 26bf bb2a 5e3f
00000320: 9df2 113d 4d15 5d3d 4e59 033e 1a38 dcbd
00000330: 8e93 913c 0d97 d13e a175 883d 89b3 d43e
00000340: 1d07 39bf c1aa d33d dc9e 513e 919d 333d
00000350: 3b4d e3bd 9c97 42be 9a1a f5be 6ed9 87bb
00000360: d763 07bf f0f6 863f 4b52 bc3e 3e18 8e3e
00000370: fcd0 343e ad55 103e 7546 d83d df8d 1bbe
00000380: f85c 71bf d8d4 96be 15f9 f03b 9778 94bd
00000390: da8a 15bf 9e99 363f ad5f c43e da11 2ebf
000003a0: 3560 67be d5fa 7abe d4bd 203d 108b 773e
000003b0: 119f 423e ee29 26bf 3a60 46be e81e 1dbf
000003c0: 69b1 a53f 5dc1 69be c638 8fbe f2c8 883e
000003d0: c77a 41be a958 b53e 07fb a4ba fcac 27be
000003e0: 30d9 f9be b12d 45bf a469 6ebe 068a 44be
000003f0: 1077 de3d e998 45be 1f87 e0be b3cb 283f

linear3.bias f4 [10]
0.7078085 -0.9048375 0.55425346 0.35904267 0.11121252 1.0724076 1.4338337 -0.7094046
-0.027189285 -2.0290713
00000000: f032 353f 6ea3 67bf 8ee3 0d3f 71d4 b73e
00000010: 64c3 e33d a744 893f dd87 b73f 8a9b 35bf
00000020: 10bc debc 4edc 01c0
